media/recog_digit/my_checkpoint.pth.tar (torch_old, 248635 bytes, 10 tensors)

conv1.weight f4 [6, 1, 5, 5]
00000000: 48d9 93bd a98b 6bbe 2122 793e 83dc 8c3e
00000010: 71ba 333d 4a59 973d 9ef1 233e d32b f53d
00000020: 9620 a63e 6a08 cb3d 0b62 703e a9ae 0abc
00000030: e2ab 0b3e c85a f1bd bad2 1cbd 0547 c43d
00000040: 5e4b 523c 1790 a23a 4c6f 78be cb1d 1e3d
00000050: e0ea 97be 1d08 cbbd 211a 6ebe a575 8dbe
00000060: 6a36 623d 00f9 6bbe 3408 53bd 07ed 68be
00000070: e3d6 483e 8adc b73d a375 bfbe 692c 22be
00000080: 708a 5ebe ea0f 473e a2d8 a23d 7b2a afbe
00000090: 59b7 ccbd 2664 48bd 24b0 873e 536c a73e
000000a0: 09d1 70be 83ca 203e 7100 643e 0863 033f
000000b0: 97bd 713d cb0d 37be af4d 883e 9f7d bb3e
000000c0: 5c60 a43d 3d7e 2dbe bdca 96bd 0c0b 82be
000000d0: df20 453d 77e6 3c3e 63a6 023e cbc7 4bbe
000000e0: 182d 08be 631f 19be 3de6 2ebd df57 293d
000000f0: 1908 fabd 08a7 c63d 3d87 f93d 7cd1 a23e
00000100: eb94 a43e ae5c d5bd d805 12be 2281 e13b
00000110: 6362 8e3d dec7 c53e d391 efbd 1914 c7bd
00000120: fd43 4f3d 2c2a 763e b3f3 a53d ab0e a93c
00000130: 81b6 703e 47b9 df3e 5b7c 3c3d 656b 813d
00000140: 997d f53e c376 fe3e ae32 dc3e ce7d 2f3e
00000150: a343 923e bed7 2d3e f02a ae3c e04b 29be
00000160: 23b3 f03c 59fe 663e 36d9 debe 1d84 fcbe
00000170: f2a9 1cbe 6bf1 53bd 5d5b 21be bbbb e3be
00000180: 5fbc 48be 2f2f c9be 3c10 82be 59e5 5abe
00000190: 5e1e 133e e534 04be 8f1d 4c3e ec47 31be
000001a0: 5c41 52be a954 cc3d f19f 153e 4348 72bd
000001b0: dc14 8abd f72f 2dbe 22bf e53c e733 29bc
000001c0: 31c8 84be b100 0dbe f5cf d5bd c376 3bbe
000001d0: b3b3 4dbb 6577 93be b1f4 d5bd e3c7 4f3e
000001e0: 7487 edbd 2422 60be 1c99 1b3d d559 803e
000001f0: a096 94bd 8e36 a43e ad0f 47bd a2ba 103c
00000200: bb9c 12bd a937 6fbe 0299 10be b402 2ebe
00000210: b878 cfbe bad3 9bbe 117c c3be 0408 b9be
00000220: 61c5 9ebe a431 f1be ca12 b9be b54d 13bf
00000230: cedc 0ebe 5320 e6be 9e2b debe 33f2 dbbe
00000240: 3ef7 f4be fef4 c4bd c7ac b1be dc4a 94be
00000250: 7cb6 9abe 0108 80be
-0.072191775 -0.23002495 0.24329425 0.27511987 0.043878976 0.073900774 0.16010138 0.119712494
0.32446736 0.09913714 0.234749 -0.008464494 0.13639787 -0.11784893 -0.038286902 0.095838584
0.012835352 0.0012402561 -0.24261206 0.03860263 -0.29671383 -0.09913657 -0.23252155 -0.27628818
0.055227675 -0.23044205 -0.051521495 -0.22746669 0.19613223 0.08977611 -0.37394437 -0.15837254
-0.21732497 0.19439664 0.07951476 -0.34212098 -0.09995908 -0.048923634 0.26501572 0.32699832
-0.2351724 0.15702252 0.22265793 0.51322985 0.059018698 -0.17876355 0.26621768 0.3661928
0.080261916 -0.16942687 -0.07362888 -0.25399053 0.04812705 0.1844729 0.12758784 -0.19900434
-0.13298452 -0.1495338 -0.04270004 0.041343566 -0.12208576 0.096998274 0.12183998 0.3180045
0.32144865 -0.10418068 -0.14260042 0.006881849 0.069523595 0.3862905 -0.11697736 -0.0972063
0.050601948 0.24039525 0.081031226 0.020636877 0.2350712 0.43696043 0.046017032 0.06319312
0.47947386 0.49699983 0.43007416 0.17137834 0.28567228 0.1697683 0.021260709 -0.1653285
0.029382294 0.22557963 -0.43525094 -0.49319544 -0.15299204 -0.051743906 -0.15757509 -0.44479164
-0.19603108 -0.3929381 -0.2540301 -0.21376552 0.14367053 -0.12910803 0.1993315 -0.17312592
-0.20532745 0.09977085 0.14611794 -0.059150945 -0.0674226 -0.16912828 0.02804524 -0.010327316
-0.25933984 -0.13769795 -0.10440055 -0.18307023 -0.0031387627 -0.28802028 -0.10447062 0.20291094
-0.11598101 -0.21888024 0.037987813 0.25068536 -0.07255292 0.32072872 -0.048598934 0.008833559
-0.035794 -0.23361076 -0.14120868 -0.16993219 -0.4052179 -0.30434972 -0.38180593 -0.36138928
-0.31009963 -0.47108185 -0.36147147 -0.57540447 -0.13951418 -0.44946536 -0.43392652 -0.4295822
-0.4784488 -0.09617041 -0.3470213 -0.28963363 -0.3021735 -0.25006106

conv1.bias f4 [6]
00000000: 0cff 943e 970d 9a3e c97b 383e ac58 973e
00000010: 81eb bf3d 2f46 4c3e
0.29100835 0.30088493 0.1801597 0.2955984 0.09371091 0.19948648

conv2.weight f4 [16, 6, 5, 5]
00000000: c03f 143d 64bc 23bd edef 38bc abd0 8d3d
00000010: c59e 2b3d 7cf7 a1bd f749 b23d 6083 4cbc
00000020: 66b8 95bc fb13 463a dba9 c0bc ae4c 2a3b
00000030: 3e62 f4bc b804 7f3d ca82 e13d e1b4 5e3d
00000040: e15a 383d 867c a03d bb9f d63d 4e25 483e
00000050: cd91 63bd c518 3cbd e6b1 b53c af3d 88bd
00000060: 6169 573c 2f7e 483d 8622 3abb dcbd 0d3d
00000070: 0fea fdbd e154 63bd e0aa d4bc f2a7 0dbd
00000080: 0beb 3fbc 7800 0f3a fc87 8cbd b179 153d
00000090: 2258 a33b 4d1c a03d 7935 0e3e c6a7 033e
000000a0: 31a4 1abd ff16 f4bb 448d 2abd 1d58 b6bd
000000b0: b20b 15bd afac d0bd 16cd d7bd a1c6 80bd
000000c0: 643c a33b 253b ac3d 99e3 903d 9534 dcb9
000000d0: 123a 55bd 59ad bdbd efdf 04be 61df 733d
000000e0: 1b10 f13c 60d3 45bc 1daf 03bd d94e 363b
000000f0: aa34 1bbd dc0e 693d cc36 c33c 6301 8bbc
00000100: 1c6b 753d 79c6 553d 28e7 7cbd 2852 9cbd
00000110: fde7 0fbd 91c6 ffbc c27a b13c fc59 7abd
00000120: 099c e5bd f612 0bbd a11a 923a 65d1 363c
00000130: 4f41 773d c43b 2cbd 9165 fc3d a741 ec3d
00000140: 37ef 8b3b be01 c5bc 3b39 bfbd dedf ebbc
00000150: 9522 b9bc 0b1c 8cbd f214 8fbc 9637 d03d
00000160: d583 713c 7052 1b3e 5c9d f63d 80d9 253e
00000170: ec85 f83d 7958 9d3e 3bb2 cf3e 7e1d 68bc
00000180: bddb 9e3d 1c04 633c bc4d c33d 4f27 ae3d
00000190: d2a3 25bd 736f 58bd 8040 8e3d 3949 48bd
000001a0: b459 5f3d 32a9 6cbc 0664 6bbd 6542 94bc
000001b0: 0c23 3b3d f46f 7ebc b727 19bd 6c1a 0e3d
000001c0: e468 10bc 374a 9dbc 1b9a b9bd b543 b7bb
000001d0: b603 74bc 1486 ebbc c98e 0fbd e401 d63d
000001e0: 3194 99bd 9dd5 753d 0e0d 623d d338 ddba
000001f0: ef5e a53d 1a53 65bd 722b 273d 95fa 23bb
00000200: 825d a63d 541e 193e 487a 94bd 8175 c6bc
00000210: f417 16bd d610 0a3d 88ec 4d3d 65d7 49bd
00000220: 18de 96bd c99c 5bbe 530d 81be 50fa 45be
00000230: 0731 a73c e77d 9a3c d654 abbb 8d76 efbb
00000240: 437a ccbd 2f87 e03d efc6 ef3d db8d 1e3e
00000250: 2061 163e cf1a 9c3d c0c2 fb3c 4fe3 e13c
00000260: d43e 013d cf76 213c 6d6f 903d 8e09 f53b
00000270: 4e15 afbd 4ce0 993d d102 333d 0eea ae3d
00000280: e935 70bb 649e dabb 97b5 833d ec55 33bc
00000290: e69f 1ebd a839 ef3c 7692 203d 0309 193d
000002a0: 127f 7fbd 4c15 263c e3e0 89bd e9ba 20bd
000002b0: c9e6 c0bc 962e 36bd 13ba debd 44ab 073d
000002c0: 8350 80bd 3d6c a03c f01d b4bc 2623 783c
000002d0: d794 c8bc eaa6 b13a 7aea 973c 7869 babc
000002e0: eab2 2b3b 3899 90bd 5b06 6fbd 0295 d5bc
000002f0: 5cea 99bd 69f2 29bd beb5 f8bd 30f6 d5bd
00000300: a9d7 86bd ae65 17bd 79fa 04be e515 073d
00000310: 7280 64bd 17eb debb 8be2 25bc 43fc d5bc
00000320: 5036 be3b 7135 37bd 2ee4 99bd 1f1f 1cbd
00000330: 0d08 c13b 2dd8 c0bc 10c8 a53d 0da8 24bd
00000340: e20d 9cbd 062b 81bd ec1d 373d a1ad 813c
00000350: a302 483c ea96 44bd 6736 84bd 40d9 b0bd
00000360: f5eb 34bb af42 edbd ed1b 33bb 096f 96bd
00000370: 049f 8c3d e81f 27bc b36a 07bd 1685 ccbd
00000380: 5252 71bd dec6 9dbd 2310 59bd 335d 0b3d
00000390: d6db bc3c 9db8 e03d e6b3 fbbb c34d 97bc
000003a0: f296 953d 3f5a 2e3d 02bd 4e3c 66e2 af3d
000003b0: 16b6 20bd 1e13 b73d 6013 143e 3fd3 573d
000003c0: 5a71 e83d 02c1 9c3d f55e 883d e6bd c23c
000003d0: 14c3 003d 6d21 91bd 3575 0fbd f807 f6bc
000003e0: 4e78 6d3b 7000 f8bc 87b4 96bd df2b 423c
000003f0: a9f7 89bd be07 07bd 9c26 b73c 6115 3cbd
0.03619361 -0.039974585 -0.0112876715 0.06924566 0.04189946 -0.07908532 0.08705514 -0.012482494
-0.018276405 0.0007556078 -0.023518493 0.0025985646 -0.029832002 0.06226036 0.11011274 0.05437172
0.045008544 0.07836251 0.10479685 0.1954548 -0.05555897 -0.04592206 0.022179555 -0.0665239
0.013147683 0.048948463 -0.0028401925 0.034604892 -0.12398159 -0.05550087 -0.025960386 -0.034583993
-0.011713753 0.0005455087 -0.068618745 0.036493007 0.0049848715 0.07817898 0.13887586 0.12856969
-0.03775424 -0.0074490304 -0.041638628 -0.08903525 -0.036388107 -0.10189187 -0.10537164 -0.062878855
0.0049815644 0.084097184 0.07074661 -0.00042000847 -0.052057333 -0.09261579 -0.12976049 0.059539203
0.029426625 -0.0120743215 -0.032149423 0.0027817993 -0.03789202 0.056898937 0.02382984 -0.016968435
0.0599166 0.05219123 -0.061743885 -0.076328576 -0.03513335 -0.031222614 0.02166498 -0.061120972
-0.11211402 -0.03395363 0.0011146852 0.011158322 0.060365018 -0.042049184 0.1232406 0.1153596
0.00427046 -0.024048682 -0.09337088 -0.028793272 -0.022599498 -0.06841286 -0.017466042 0.10166852
0.014740904 0.15168166 0.12041733 0.16196251 0.121349186 0.30731562 0.40565667 -0.014167188
0.077567555 0.01385596 0.09536311 0.08503591 -0.040439434 -0.05284066 0.06945896 -0.048897956
0.054528907 -0.014444636 -0.057468437 -0.018098066 0.04568772 -0.015529621 -0.03739139 0.034693167
-0.00881407 -0.019200427 -0.090625964 -0.005592788 -0.014893463 -0.028750457 -0.03504828 0.10449579
-0.074989684 0.06001817 0.05518823 -0.0016877897 0.08074748 -0.055987455 0.040812917 -0.0025021185
0.08123304 0.14952976 -0.07249886 -0.024225952 -0.036643937 0.033707462 0.050274402 -0.04927768
-0.0736658 -0.21446528 -0.25205478 -0.19333768 0.02040912 0.018858863 -0.005228619 -0.0073078335
-0.09984257 0.10963284 0.117078654 0.15483801 0.14685488 0.07622301 0.030732512 0.02757421
0.03155406 0.009854986 0.07052503 0.0074779456 -0.085489854 0.07513484 0.043703858 0.08540736
-0.0036653227 -0.0066717137 0.0643112 -0.010945778 -0.03872671 0.029202297 0.039202176 0.03736211
-0.062377043 0.0101369135 -0.06732347 -0.03924075 -0.023547547 -0.04447802 -0.108753346 0.033122316
-0.062653564 0.019582862 -0.021986932 0.015145099 -0.024485035 0.0013553773 0.018544424 -0.02275537
0.002619917 -0.07060474 -0.05835567 -0.026072029 -0.07515404 -0.041490946 -0.121440396 -0.10447347
-0.06584103 -0.036962204 -0.12986173 0.032979865 -0.055786557 -0.0068029272 -0.010124813 -0.026121264
0.0058048144 -0.0447287 -0.07514225 -0.038115617 0.0058908523 -0.02354058 0.080947995 -0.04019933
-0.076198354 -0.06307034 0.04470627 0.015829863 0.01220766 -0.047995485 -0.06455689 -0.08635187
-0.0027606462 -0.115849845 -0.0027329877 -0.07345397 0.06866267 -0.010200478 -0.03306074 -0.09986322
-0.058916397 -0.077039465 -0.052993905 0.03402443 0.023054045 0.10972712 -0.0076813577 -0.018469697
0.07304181 0.042566534 0.012618305 0.08588104 -0.03923615 0.08939193 0.14460516 0.052691694
0.11349745 0.07654001 0.066587366 0.023772191 0.03143604 -0.070864536 -0.035023887 -0.030033097
0.0036235037 -0.030273646 -0.073586516 0.01185128 -0.067366906 -0.032966368 0.022357278 -0.045918826

conv2.bias f4 [16]
00000000: 256d 74bd 8907 ff3c 29f6 4dbc 7b80 663d
00000010: 608a 09bd c334 45bc 7732 63bd 7419 5bbc
00000020: 1e0f a83b 8faa 8cbd b307 02ba 11cb 693d
00000030: 43a6 b3bc 0d42 0bbc c805 203d 9679 243d
-0.0596744 0.031131523 -0.012570896 0.056274872 -0.03357923 -0.012036505 -0.05546805 -0.013372768
0.0051287552 -0.06868469 -0.0004960254 0.057078425 -0.021929866 -0.008499634 0.039068013 0.040155016

fc1.weight f4 [120, 400]
00000000: 20ab 2c3d 47c8 253c 8289 d1bc 8dda fa3c
00000010: 3052 3bbd f705 c23c 73e6 06bd 4ece 8d3c
00000020: 7d64 21bd 0d9d ecbc 27cf 02bd 11a9 f73c
00000030: 0c10 a7bc 078e 963c e6b4 aebc 8b4a 05bc
00000040: 77eb 7f3c 5633 1abd fd32 06bd fc18 46bd
00000050: 35c2 1bbd 39dd 32bd 5471 15bc 83de 1dbd
00000060: 76f0 493d de0a b23c 6ab9 973c a35c 333c
00000070: d5f4 7dbc 823e 19bd d11c 373c 8a7e e1bc
00000080: e0b4 07bd 3429 143b e757 1bbc 1e81 33bd
00000090: 2959 e23c 1b8f 88bc 59a4 fb3c 54dc 103d
000000a0: 410b 543c 7906 ad3c c3a4 0c3d 7108 1bbd
000000b0: bd4d f4bb 6df7 c63c 2302 3f3d e7d7 223d
000000c0: b0fc ddbc 45bc 36bc fa2e cbbc bf5f 593c
000000d0: 31e2 10bd 8142 823c f2bc a53c 5716 ef3c
000000e0: 3793 9a3c 6a14 0ebd 3284 78bc 4bcc 383d
000000f0: 7136 ccbc 4501 f0bc a92a 063b 5940 7d3c
00000100: e3cb 7a3c df81 0abd 0c6d a13c f96b 28bd
00000110: ba32 2fbb 1d96 973a c562 18bd 4cee c2bb
00000120: fc2c 8bbc 4ef1 75bc a31c 9e3b 7265 1abd
00000130: 9898 8e3c 6e29 413b fb1a 83bc b8ea 323d
00000140: ca3f 38bd 8a27 15bc 805a 2c3d 7def 633c
00000150: 3343 4bbd abcc babc 875a 2e3d abf7 a13b
00000160: 4f0a b83c d083 59bc b60b cfbc fed5 fe3a
00000170: 0b84 33bd 5b22 39bd fc86 ac3c 1944 3abd
00000180: 14da da3c 572d 9a3c e1e5 70bc 1052 2bbc
00000190: 34e9 943c 24f1 293d a8cc 7e3b 759f f73c
000001a0: 8864 4abd 7314 0bbc dbe1 89bc db8d c13c
000001b0: b09d 46bd 0fba 18bd ab60 87bb c5e5 0d3c
000001c0: 2687 39bd f935 093d 0f9a f6bc 4ad6 0dbd
000001d0: db9b 18bd 68e3 d5bc 7fd4 253d 25e1 d83a
000001e0: 3df9 4abc bc0f ddbc 5308 eebb 2800 4bbd
000001f0: aa4e 0bbd bfd2 3cbd 0713 13bd b35a 5c3c
00000200: 5cbe bcbc 2d3e d73c 2dde bf3c 449b f5bc
00000210: 3406 bdbc 9f83 20bd 20d6 0bbc 65c3 343d
00000220: a715 10bd 5b64 f9bb 01b8 a8bc e826 be3c
00000230: 5337 b7bc 3bbb 173d 016c dbbc a7cf 963c
00000240: c414 eb3c 4e9d 42bd 6495 03bd 8ba4 90bb
00000250: 4ba9 2fbd e351 3abd a73b 143d 168a 24bd
00000260: 2de8 59bc 1235 313c f036 2d3d 39a5 30bd
00000270: c057 2abc 3bf6 083d c6ec 4ebd 86c9 95bc
00000280: 0d42 f7bc b9ed 1f3d 0cb9 1fbd 1fbc 49bd
00000290: 7dc6 30bc ef99 dfbc dada 17bb e40f 16bd
000002a0: 2c2b b03a d741 373d 1246 303d c3d3 0fbd
000002b0: 1ea8 07bd 7de1 0bbc 9523 3f3d 12f3 3cbd
000002c0: b383 3b3d 2248 dbbc 0f95 623c a992 aebc
000002d0: b0d5 743c 348a 47bd 8482 0abc 6ab8 92bc
000002e0: ccf8 e53c 752d 293c 467c 89ba 42eb 64bc
000002f0: 6910 52bd 2a34 053d fbe4 d53a 8a86 7ab8
00000300: d5fe 33bd f12b 263c c5de cebc 92ae 163c
00000310: 3ecc c83a 2eb7 313c f1a6 a33c 22f0 933c
00000320: e8d5 7e3c 8353 01bd ccfe 22bd 7c41 423d
00000330: 9f31 43bd 4a30 c0bc 3c6e 99ba 3c6c dc3c
00000340: ac18 073c 16b2 b8bc 4a1a af3b 807f 2fbd
00000350: 31fd f1b9 e009 12bd a488 123d 2773 403d
00000360: 986f 063d 33d5 50bd 103f 873c e839 603a
00000370: 890e f03c 90a9 3fbd ccd6 003d aa4e d1bc
00000380: 9bee 20bd bfb5 313d e2e2 f3bc 6326 81bc
00000390: 52e2 f43c 2b01 2b3c 6ef4 0cbd 0e81 ba3c
000003a0: addb 82bc 12b0 373c dba4 c4bc 9a8d 9539
000003b0: 8b25 98bc f0b8 233c 1636 533c 61be bcbc
000003c0: e8c3 323d f31b 233d 7ae9 45bd ba0c 603c
000003d0: f96b 91bb b356 d73c 99bf 043d 2d99 103d
000003e0: 81cd b3bc 28e2 253d 432a eabb 27ee 28b9
000003f0: 91cc 1d3d dfd9 0ebd f1fa 46bd 5405 a33c
0.042155385 0.010118551 -0.025578264 0.030621791 -0.045732677 0.023684485 -0.032934617 0.017310288
-0.039402474 -0.028883481 -0.031935837 0.030231984 -0.020393394 0.01837827 -0.021326493 -0.008135448
0.015620104 -0.037646614 -0.03276347 -0.04836367 -0.038027007 -0.043668006 -0.009121258 -0.03854228
0.049301587 0.021733698 0.01852103 0.010947379 -0.015500267 -0.037413128 0.011176304 -0.027526159
-0.03313148 0.0022607567 -0.009481407 -0.043824308 0.027630406 -0.0166698 0.030718016 0.03536637
0.012942136 0.02112125 0.034336817 -0.037849847 -0.007455556 0.024287904 0.046632897 0.03975668
-0.02709803 -0.011153285 -0.024802674 0.013267457 -0.035371963 0.015900852 0.020231698 0.029185457
0.018869026 -0.034687437 -0.015168237 0.045116704 -0.024928303 -0.02929748 0.0020472205 0.015457236
0.015307399 -0.03381526 0.019705318 -0.041118596 -0.0026733116 0.0011565123 -0.03720357 -0.0059488174
-0.016989224 -0.015011145 0.004825191 -0.037694402 0.017406747 0.0029474157 -0.016004076 0.043680876
-0.04498271 -0.009103665 0.042078495 0.013912079 -0.049624633 -0.022802671 0.042566802 0.0049428544
0.022465853 -0.013276055 -0.025274139 0.0019442437 -0.043827098 -0.04519878 0.02106046 -0.0454751
0.026715316 0.018820448 -0.014703245 -0.010456577 0.018177606 0.041489735 0.003887931 0.030227402
-0.04941228 -0.008488762 -0.01683133 0.023627212 -0.048490226 -0.037286814 -0.0041313968 0.008660738
-0.045294903 0.033498738 -0.030102758 -0.03462819 -0.03725801 -0.026109412 0.040485855 0.001654659
-0.012388525 -0.026985042 -0.007264176 -0.049560696 -0.034010567 -0.04609942 -0.035906818 0.013449359
-0.02303999 0.026274765 0.023421371 -0.029981263 -0.023074247 -0.039188024 -0.008534938 0.044131655
-0.0351769 -0.0076108403 -0.020595552 0.023211911 -0.022365248 0.03704379 -0.026784899 0.018409563
0.028696425 -0.0475133 -0.032124892 -0.0044141463 -0.04288606 -0.04548825 0.0361897 -0.04017075
-0.013299984 0.010815876 0.04228872 -0.04312632 -0.010396898 0.03343795 -0.050518773 -0.01828457
-0.030182863 0.03904507 -0.038994834 -0.049251672 -0.010789511 -0.027295081 -0.0023171217 -0.03663625
0.0013440601 0.044740524 0.043035574 -0.03511406 -0.033119313 -0.008537647 0.046664793 -0.046130247
0.045779895 -0.026767794 0.013829484 -0.021310167 0.014943525 -0.048715785 -0.008453969 -0.017910201
0.028072737 0.010325779 -0.0010489307 -0.013972105 -0.05128518 0.03252045 0.0016318852 -5.9729944e-05
-0.0439442 0.010142312 -0.02525271 0.009196894 0.0015319658 0.010846896 0.019977065 0.01805884
0.015553929 -0.031573784 -0.039793774 0.047425732 -0.047654744 -0.023460526 -0.0011705826 0.026907079
0.008245628 -0.022545855 0.00534371 -0.042846203 -0.00046155744 -0.03565395 0.035774842 0.046984818
0.032821268 -0.050984573 0.016509563 0.00085535506 0.029303806 -0.046792567 0.031454846 -0.025550205
-0.039290052 0.043386217 -0.029771272 -0.015765375 0.029893074 0.01043729 -0.034412794 0.022766616
-0.01597389 0.011211412 -0.02400439 0.00028524996 -0.01857259 0.009992823 0.012891313 -0.023039998
0.043643862 0.039821576 -0.048318364 0.013674909 -0.00443792 0.026286459 0.032409284 0.03530233
-0.021948578 0.040498883 -0.0071461513 -0.00016110447 0.038525168 -0.034875747 -0.04857916 0.019900002

fc1.bias f4 [120]
00000000: 59a9 96bb 4b88 88bc 06c6 73bc 8065 ddbc
00000010: d412 303d cf3d 8c3c 37f1 0fbd 4893 463c
00000020: 53f3 fd3c e9c7 a53c e772 543d 3a7b 673c
00000030: 1af7 38bd 6712 b53c dddb 86bb 2f02 b2bc
00000040: 96f6 3bbd 93ef c23b d8ef b6bb 6c72 1abc
00000050: 4127 263d 5fa3 4a3d f80a 4a3d 2419 ccbc
00000060: fc43 ac3c cea1 40bd 900b 283d 7f5c e7bc
00000070: d864 693c 12da 0bbc ec84 ff3c 9094 1cbd
00000080: a9db 3a3d 8df0 13bd 2186 42bd 7cd2 3abd
00000090: a9bc b4bc d1c4 423c f17a 433d fc62 8cbc
000000a0: b452 0fbc 11ec 293d e21f a73c 6528 513d
000000b0: 7d5c 4b3d 3f9f a03c 356c 10bd 4ff2 b3bc
000000c0: 7abb 273b 3c95 cc3c 8f6f 3c3d 40d1 52bc
000000d0: 0200 45bc 9869 2a3c 98bb 693c 2a15 c83b
000000e0: 1fb9 ff3c a8fb 20bc 0e72 36bd a186 c6bb
000000f0: e95e 45bb 71e1 6f3c a456 45ba 27e2 b83b
00000100: 9607 603c 577d a1bb 34c9 203d 10ba 343d
00000110: f34c 54bc 0efb 45bd 3192 ebbb 169b e83c
00000120: 54b4 0cbc 0579 e93c 7bad c33c a0ed a33a
00000130: f7b0 433d e3a6 a73c 107c e5bc c5cf a6bc
00000140: 50bf f63c 30fa fe3c c863 39bc a3cd fabc
00000150: 7250 83bb 4d0f abbb 9cd5 073d 9cd8 9ebb
00000160: 2272 1e3c 3e41 3ebc 958b 473b 2050 1eba
00000170: 59b6 463d ddec 14bc 3782 2dbc d150 21bd
00000180: abf6 c43c f5ce a8bc 56f1 adbc 7c17 373b
00000190: 08ed bfbb 1159 473d 1a0a f8bb 169e 06bd
000001a0: a292 243c ff22 a7bb 11dd 3dbd 56b2 403d
000001b0: b4c8 2e3c 0b75 f83b c4b3 25bd db3b a73c
000001c0: 6623 6fbc 5573 0bbd b6e6 5f3b 66f8 353d
000001d0: 70b9 603c 7c45 133c 86af aa3c f359 44bc
-0.0045978245 -0.016666552 -0.014878755 -0.027025938 0.042986706 0.017119316 -0.03514215 0.0121200755
0.030999815 0.020236926 0.051867392 0.014128501 -0.04515753 0.022103501 -0.004115565 -0.021729557
-0.04588946 0.0059489696 -0.005582791 -0.009426694 0.04056478 0.04947221 0.049326867 -0.024914332
0.021028511 -0.04702931 0.04102665 -0.028242348 0.014245234 -0.008535879 0.031191312 -0.038227618
0.04561964 -0.03611808 -0.047491197 -0.04561089 -0.022062616 0.011887745 0.047724668 -0.017137043
-0.008747745 0.041484896 0.020400945 0.051063914 0.04964875 0.019607184 -0.035259444 -0.021966128
0.0025593922 0.024973504 0.046004828 -0.012867272 -0.012023928 0.010401152 0.014265917 0.0061060386
0.031216202 -0.0098256245 -0.044542365 -0.0060585295 -0.0030116385 0.014641152 -0.0007527864 0.005642194
0.013673684 -0.0049282718 0.039254382 0.044122756 -0.012957799 -0.048335128 -0.0071890582 0.028394263
-0.008587915 0.02850009 0.023886433 0.0012506731 0.04777619 0.02046532 -0.02801326 -0.020362744
0.030120522 0.031125158 -0.011315294 -0.030615633 -0.0040073926 -0.00522033 0.0331627 -0.004847599
0.009670766 -0.011612235 0.0030448188 -0.0006039161 0.048513744 -0.009089676 -0.010590128 -0.039383713
0.024043402 -0.020606497 -0.021233242 0.0027937582 -0.0058571137 0.048668925 -0.0075695636 -0.032865606
0.010044726 -0.0051006074 -0.046353403 0.047045074 0.010667969 0.007582312 -0.04045464 0.020414283
-0.014595842 -0.034045536 0.0034164614 0.044426344 0.013716087 0.008988734 0.02083565 -0.011984336

fc2.weight f4 [84, 120]
00000000: 1021 45bc 56f6 bbbd dba5 ea3c 898f 2a3d
00000010: 482e be3d f5de 973d 498e 5b3d 396d e43d
00000020: 2ede 803d fc7f 473d 345a ba3c 9c87 19bc
00000030: 2eac 713d b218 b83b 054d 75bd bfc6 8e3d
00000040: 62a6 d73d 459d 6a3d e70a ebbb a2e5 9a3d
00000050: 7833 65bc 0284 e13c 063e 7d3d 41b7 373b
00000060: dca9 f53b 3c30 ce3c 2e9e acba 2065 6a3d
00000070: 9ce5 823c d1b9 4dbd 99eb cf3b 5ee3 07bc
00000080: 3948 4c3d 4e10 ee3c cd55 7a3c f623 423d
00000090: 7e8e b33d 74ae 21bc fca6 a1bd 82d8 82bd
000000a0: 98b2 913a c109 293d 73d4 a33d 3dd0 b3bd
000000b0: 258e 82bd ae5f 843d e636 bcbd 15bf b2bd
000000c0: 3d8e a8bd bb16 4d3d 3185 c33d 8e01 adbd
000000d0: b23e 52bd 9f92 a33c f430 73bd bb0d 62bd
000000e0: 377c ab3d 2d92 953d 3efb 3dbd 57ce 6cbd
000000f0: 33af 563c 85f0 b0bd db87 4bbd f423 093e
00000100: e318 18bc 0181 e83b f62c a0bd c555 43bd
00000110: 7522 763d 2edf 093d 8e13 4abd b537 653d
00000120: 278e 533d 7ea2 8cbd 50c8 143d e55d 57bd
00000130: a870 073d dfec 513d 1961 e7bd 0131 91bd
00000140: 0e16 9ebd 5038 7dbc ea0e 943c b8aa bc3c
00000150: 35f8 28bd cb1a 7a3c 38d5 0a3d 9830 cabd
00000160: bdd4 503d df32 2bbc 7320 a5bd 7f26 8bbd
00000170: e24a d23c 6289 b9bd 4b7d a4bd 6706 05bd
00000180: 6db4 bebc 9b7d 82bc e696 7abc 1c65 8e3d
00000190: e12d fa3c 8b3b adbc e9bd 36bc 4d67 763c
000001a0: 6bed 93b9 b47f b63d 9ddb bdbd a93c 5b3b
000001b0: dca1 8d3d 8c8e f73d 1172 3dbd f354 013d
000001c0: da8e 9a3d fe04 37bc 71c2 cfbc 8c44 acbd
000001d0: eb14 8438 fecc 06bb 8171 4c3d 5a6f f93c
000001e0: 6778 17bd 315d 8cbd 2adf b3bd b83e a5bc
000001f0: dd0a 93bd 8ccd b0bd e7d2 46bd 05bb adbd
00000200: cad4 ee3c f8cd 76bd 505e bdbd d0fe b2bc
00000210: c255 2f3d 6652 533d 6156 723d ff05 e83c
00000220: d56b d23a 9482 793c 258d 2f3d 5ba3 a4bc
00000230: 5e2f aabd cbcb 4bbd 9f71 3c3b f4e3 5b3d
00000240: 3af8 32bd d1be b6bd 8d5c 8c3d 86c5 4dbd
00000250: 4324 41bd 680d b63d b7d0 9abd 11b9 b23c
00000260: 7724 403d dc89 f03b 90e1 4f3c f622 753d
00000270: c9ad a83d 085e b5bd 95ff 6dbd 1629 96bd
00000280: 66c0 abbb 8d02 b53d 40d1 583d b86e 0e3c
00000290: d98c 6cbd 10db 58bd 66a3 9d3c c05a 893d
000002a0: 2135 913c b6f0 58bc 4dd3 53bb 88c1 acbd
000002b0: 393c 053d 0c5b a33d 8fc6 acbd 2de4 8dbc
000002c0: 618c 44bd e70d 85bd 4e1d 413d fe26 253d
000002d0: c935 3cbd b3c9 3dbc 68a5 f63c 22a2 143d
000002e0: c237 24bd 6f63 b2bd a3ed a73c ef54 eabc
000002f0: 5b23 ddbc d947 8bbd c52e 3abc 51c0 af3d
00000300: 83f0 b6bd e697 753d 9c14 93bd 9223 29bd
00000310: 9603 3b3d 1aed 1ebd 7401 043d e733 2d3d
00000320: 3387 b9bd 93ac e8bb 96b9 603d 152d 31bd
00000330: 7e2b 9ebd 8c98 a0bd c66a 27bd bc23 27bd
00000340: 6409 1bbd 0024 9a3d dbe7 893d d5bd ecbc
00000350: a3af 723d 7053 473d d70c b7bd 0847 cdbc
00000360: 586b 273c a311 59bd 4486 4abd 0ff1 8e3c
00000370: 9b0c 043d ddaa 403b d098 163d fe69 a3bd
00000380: c04c a63d 7258 6a3c 3de6 2cbd dc6d c4bc
00000390: 9fe5 d3bc a437 4fbd cd54 683d 722d 893d
000003a0: 6e08 203d 05f0 b7bd 75f2 1abc 8a17 c83c
000003b0: 4bea ae3d 4f09 b53c 3608 3a3c e06d 76bd
000003c0: b614 65bd 7da5 983d 06a5 38bd b151 66bb
000003d0: e900 133d 2b79 ac3d 3b20 5dbd 76a9 913d
000003e0: bbc0 723d b1df 9a3d c7de 5c3c 822d 153d
000003f0: 0503 723d 160b dbbc 117c ac3d b7fd 823d
-0.0120318085 -0.09177844 0.02864354 0.041640792 0.09286171 0.074155726 0.05360249 0.11153645
0.062923774 0.04870604 0.02274809 -0.009370711 0.059002094 0.0056181783 -0.059887905 0.069715016
0.10529782 0.05727889 -0.0071729305 0.0756333 -0.013989322 0.027528767 0.06182673 0.0028032812
0.0074970555 0.025169484 -0.00131697 0.057225347 0.015978627 -0.050226036 0.006345224 -0.008293955
0.049873564 0.029060509 0.015279246 0.047397576 0.087674126 -0.009868253 -0.07893178 -0.06388952
0.0011115847 0.041269068 0.07999506 -0.08779953 -0.06374768 0.06463562 -0.091901585 -0.08727852
-0.08230255 0.050070506 0.095468886 -0.08447562 -0.051329322 0.019967375 -0.059372857 -0.055188876
0.083733015 0.073032714 -0.04638218 -0.05781397 0.013103294 -0.086396255 -0.04969011 0.13392621
-0.009283277 0.0070954566 -0.078210756 -0.047689218 0.060091455 0.033660106 -0.049335055 0.05596133
0.05164924 -0.068669304 0.036323845 -0.05257978 0.03306642 0.05125129 -0.11297817 -0.07089425
-0.0771905 -0.0154553205 0.018073518 0.023030624 -0.041252334 0.015265177 0.033894747 -0.0987255
0.050984133 -0.01044914 -0.0806283 -0.06794452 0.025670473 -0.09059407 -0.0803171 -0.03247681
-0.023279393 -0.015929034 -0.015294766 0.06952879 0.030539455 -0.021146556 -0.011153677 0.015039277
-0.00028214915 0.08911076 -0.092704035 0.0033452904 0.06915638 0.120877355 -0.04625136 0.031575155
0.07546778 -0.011170624 -0.025361272 -0.08411512 6.298147e-05 -0.0020568962 0.049912933 0.030448604
-0.03698006 -0.06853712 -0.087827995 -0.020171508 -0.071798064 -0.08632955 -0.048540976 -0.08482937
0.0291542 -0.06025502 -0.09246504 -0.02185002 0.042806394 0.051592253 0.05916441 0.028323172
0.0016053865 0.015228886 0.042859215 -0.020097425 -0.08309816 -0.0497549 0.0028754247 0.05368419
-0.04369376 -0.08923114 0.0685359 -0.0502372 -0.047153722 0.08889276 -0.075593404 0.021816762
0.046909776 0.007340653 0.012688056 0.059847794 0.08236272 -0.08855826 -0.05810507 -0.07332055
-0.0052414415 0.08838377 0.05293393 0.00869339 -0.05775151 -0.05294329 0.019242954 0.06706762
0.01772553 -0.013240984 -0.003232199 -0.08435351 0.032528136 0.0797635 -0.084363095 -0.017320717
-0.04798544 -0.06496792 0.047147088 0.04032039 -0.04594973 -0.011583733 0.030108169 0.036287434
-0.040092237 -0.08710372 0.020499056 -0.028604953 -0.026994398 -0.06800813 -0.01136369 0.08581603
-0.08932593 0.059959315 -0.07181665 -0.041293688 0.045657717 -0.038800336 0.03222795 0.042285826
-0.0905899 -0.0071006506 0.05486449 -0.043255884 -0.07723139 -0.07841596 -0.04087331 -0.040805563
-0.037850752 0.07526398 0.06733676 -0.028899113 0.05924953 0.048663557 -0.08937996 -0.025058284
0.010218464 -0.052995335 -0.049444452 0.01744893 0.032238584 0.0029398717 0.036766827 -0.07979201
0.08120108 0.014303314 -0.04221176 -0.023978166 -0.025866328 -0.050590172 0.056721497 0.06698121
0.03907054 -0.08981327 -0.00945722 0.024425287 0.085407816 0.022099165 0.011354497 -0.06016338
-0.055927955 0.074534394 -0.045079254 -0.0035143907 0.03588954 0.084215485 -0.053985815 0.071124
0.059265833 0.07562197 0.013480849 0.036420353 0.05908491 -0.026738685 0.08422101 0.063960485

fc2.bias f4 [84]
00000000: 0ca2 a3bd 87bb 953d 7bd4 66bd e4db 8ebd
00000010: 44aa c63d 4f08 55bd eef8 b23d 2594 883d
00000020: f33d 973d 4d6b 183d bb95 913d 71b5 b03c
00000030: 76a9 f4bc c702 843d f966 aebc 05f6 0cbd
00000040: ea04 aebd 4342 d23c 8885 483d 953b 23bd
00000050: 20a4 81bd 344d f63c 2c10 4d3d 6596 01bd
00000060: a0ac 9cbd bc7e aa3c 5c6d da3b a0cd bbbb
00000070: 7b6e eebc 72b1 29bd 8a6f b63d d30a 3abd
00000080: eadf c33d db43 9abc f3ce 87bd 0004 9c3d
00000090: 1fb0 dcbc d33f 1abd 6d75 40bc f21f ae3d
000000a0: 1ade 9bbd b30d 393d 268e 1f3b 71ca afbd
000000b0: 7f79 c6bc a542 81bc ed8a 83bc c654 bd3d
000000c0: 992e 9b3d bb5b 86bc 61d9 e4bc 5350 10bd
000000d0: 2408 533d 1247 19bd cae2 723d d7c1 493d
000000e0: feaa 9bbd 8abd 74bd 2c6a 2bbd 74f3 94bd
000000f0: 9a69 afbd 465f 663b ebc2 1c3d e181 933d
00000100: a5a6 c23d 6229 113d d1ef afbc bafb 57bb
00000110: 408d e83c 0811 8eba 9cfe a4bd 59e3 8cbd
00000120: 4ad3 4abd 8613 4ebd 1f96 503d 5c8a 1fbd
00000130: deea 493d 7b30 9dbc a639 ccbc 1c15 ab3c
00000140: 3f7c 103d b316 abbd 08ee 39bc 65ba 69bd
-0.07989892 0.073111586 -0.05635498 -0.069755346 0.09700444 -0.052009877 0.08738886 0.06668881
0.07384863 0.037211705 0.07108637 0.021570893 -0.029865962 0.06445842 -0.021289336 -0.03441431
-0.08497031 0.025666362 0.04895547 -0.039851744 -0.063301325 0.03006611 0.05006425 -0.031637568
-0.07650113 0.020812385 0.0066658687 -0.0057312995 -0.029105416 -0.04142899 0.08907993 -0.04542048
0.095641926 -0.018831184 -0.06631269 0.076179504 -0.02693945 -0.037658524 -0.0117467465 0.08502187
-0.07610722 0.04517908 0.0024346202 -0.085835345 -0.024227856 -0.015778849 -0.016057456 0.09244685
0.07577247 -0.016401162 -0.027935686 -0.035232853 0.051521435 -0.037421294 0.059298314 0.049257126
-0.076009735 -0.05975107 -0.0418493 -0.072729975 -0.08565064 0.0035152002 0.038271826 0.07202507
0.09504441 0.035439856 -0.021476658 -0.0032956437 0.028387666 -0.0010838816 -0.080563754 -0.068793006
-0.049517907 -0.050311588 0.050924417 -0.03895031 0.049296252 -0.019188156 -0.024929833 0.02088409
0.03527474 -0.08353939 -0.011348255 -0.057062525

fc3.weight f4 [10, 84]
00000000: 277a 013d 76cf 50bd 0791 f23b a941 b1bd
00000010: f424 f8bd 2777 9f3d e76a 13bd ee81 f2bd
00000020: 52e7 153e 75a5 30be 5079 5e3e 87bb 8abc
00000030: 4e18 86bc d080 c63d 267b efbc 0167 fabc
00000040: 0c07 aabc 9adb 0e3e 5421 293d 73b4 dd3d
00000050: 013f dd3d 345b aabd 8619 453e 3cbb 473e
00000060: 2b71 88bd 9f7b 033e cbd3 95bc 54b8 c3bc
00000070: 48b2 7fbc 1609 d8bd 4cc8 4abe b29c 533d
00000080: ca30 393d 2a70 89be 707e 7d3d 3bad bb3d
00000090: 45e3 343e 3d03 05bd b7fd d43d 42b6 e83c
000000a0: d46e 7abe ee7d 9fbd 3f02 b9bd 78cb cdbc
000000b0: 7e86 083e cd3b 59be 1be1 91bd 8b7c 443d
000000c0: b893 c3bd 9bc7 0ebe 1bb6 21be 2395 043e
000000d0: 46dc 17be 772b 1dbe 842c 86bd c77e d4bd
000000e0: 40bd d83c dcd3 9ebd 70d9 963d 546d 693d
000000f0: 98f6 993d 44fa d23d 3ab9 8f3d 0005 32bd
00000100: 6181 0abe 9845 b0bd 1067 91bb 5a80 cf3c
00000110: c234 e73c 2d13 0c3d f45e 1d3a bfab d1bc
00000120: 819b 75bd 4ef2 0f3e c8bc d1bd 7c5c ac3d
00000130: e6ff 853c ae37 c73d bece b2bc 5940 70bd
00000140: 0f3c 853c dd41 a6bd 235f 013d 1004 993c
00000150: 9f13 c93d 9c80 433d 24b5 113c c104 9ebd
00000160: d861 94bd de73 f7bc b87b 273e 1b5e 233e
00000170: b4d3 04be 86ef 613d 6a40 95bd a4c8 533e
00000180: 26e3 c9bd 7796 dcbd 8e62 bb3d f753 c4bd
00000190: a273 be3d 5448 5fbe 0c7c 9f3c f400 e43c
000001a0: b0aa af3d 50ae 0ebd 79d7 69be 309f 03be
000001b0: bd41 863d 09aa 33bd a0a5 713e d813 82bd
000001c0: f4bf b53d f173 3e3d 9ef0 133d bb5a 8f3d
000001d0: ac1d 683e ac9d 05bd aac6 4f3d ec66 5ebd
000001e0: 7906 10be 02f8 46bd ba87 adbd ad23 b4bd
000001f0: 54ba 1fbd 0606 883e b487 1d3e b8cf 2ab9
00000200: f5bf 29be 188f 31be 58cf 34bd 768c e5bd
00000210: 1ecc 563d ddac bd3d 2a1e 13bd 5754 ba3c
00000220: e1c5 7dbd da89 80bc 2791 2bbe 95e5 bd3d
00000230: 7605 43bb ff96 9dbd 1b2d d93d 1a0f 90bd
00000240: 1c7d c93d 87e8 cd3c 5f16 943d 7280 47bb
00000250: 8691 e13d 02df db3d 5b7c 2ebd 80f9 56bd
00000260: f79b 8b3d 94f2 323d 5392 d83d 52b8 0a3e
00000270: 7535 2d3c c6df 82bd 3820 b43d 75e4 1dbe
00000280: 52cd 903c 0011 b83d bf79 ccbd 0873 fabd
00000290: 4b26 94be 428c 8d3d 667b 443e d762 613e
000002a0: 18d2 f63d 957c 1dbd d4ab 1abd 7871 3c3e
000002b0: d281 d43c 32ef 403c 83d3 2fbe 5760 a53d
000002c0: d6f4 e2bc 7974 d63b bdd7 7a3e c0e8 0f3d
000002d0: 0258 8bbd 429b 9ebe b0be 8cbd 2710 7c3d
000002e0: 5be1 183d b7df c4bc 80cc efbd 9fe0 a8bb
000002f0: 734a be3c 2b31 9a3d 442f 83bc b9d9 b73c
00000300: 023c f63c 982f d33c d81f c93d 4233 b2bd
00000310: 9a99 103d 9a8d 49bd c212 23be 1b5d b4ba
00000320: c011 1c3d 265d eabc 48d8 0a3e 24af b2bd
00000330: 834f 72be 6751 c73d 2a2f 66bd a9e2 bd3d
00000340: 7c39 dd3b 009d 433d bfab 47be 3538 073d
00000350: 1d4f 61bd edf7 27be a84e a0bd b085 823d
00000360: 0d92 abbd d829 41bc ebf6 efbd 69e2 18be
00000370: c59b df39 11af 96be 5aac cd3d e4fd 803d
00000380: 7559 a8bc 2441 95bb 6cdb 773c b8e1 743d
00000390: e950 043e 9687 77bd 37f7 6b3d 8be5 673e
000003a0: 62f0 43bd 0a15 2a3e bc26 033e 80b1 dfbd
000003b0: 5d98 10be 138c 9e3d 2a65 863d cd0a 02be
000003c0: 2477 c83d 4a7a 7b3d 0150 60bd 3d31 36be
000003d0: c6f2 bcbd 7113 94bd b054 b8bd d67d 653e
000003e0: d736 3e3e 56b5 92bd be2d 41bd bf56 da3d
000003f0: 40b6 d53d e442 4e3d e740 19bd 9381 59bd
0.031610634 -0.0509791 0.0074025425 -0.08655102 -0.12116423 0.077863984 -0.035990622 -0.11841188
0.14639023 -0.17250617 0.21725965 -0.016935123 -0.016369011 0.09692538 -0.029233526 -0.030566694
-0.020755313 0.13950959 0.04129155 0.108254336 0.10803033 -0.08318177 0.19248018 0.19505018
-0.0666221 0.12840126 -0.018289467 -0.023891605 -0.01560647 -0.10548608 -0.1980297 0.05166311
0.045212545 -0.26843387 0.06188816 0.091639005 0.17664821 -0.03247379 0.10399955 0.02840722
-0.2445634 -0.07787691 -0.090336315 -0.025121436 0.13332555 -0.21214218 -0.071230136 0.047970336
-0.095496595 -0.13943331 -0.15792124 0.12947516 -0.14830121 -0.15348612 -0.065514594 -0.10375743
0.026457429 -0.07755253 0.07365692 0.05698903 0.07517737 0.10301641 0.07017751 -0.0434618
-0.13525917 -0.08607024 -0.004437335 0.025329757 0.0282234 0.034197975 0.0006003224 -0.02559459
-0.059962753 0.14057276 -0.10241085 0.084160775 0.016357373 0.09727417 -0.021827098 -0.058655117
0.01626399 -0.08118031 0.03158487 0.018678695 0.098181956 0.047730073 0.008893285 -0.077157505
-0.07245225 -0.030206617 0.16355789 0.15953867 -0.12971383 0.055160068 -0.07287677 0.20682007
-0.09857778 -0.107708864 0.09149657 -0.095863275 0.09299399 -0.21804935 0.01946833 0.027832486
0.08577478 -0.034834206 -0.22836103 -0.12853694 0.06555507 -0.04386333 0.23598337 -0.06351441
0.08874503 0.04649729 0.036118142 0.06999727 0.22667569 -0.03262107 0.05072657 -0.054297373
-0.14064969 -0.048576362 -0.084731534 -0.08795867 -0.038996056 0.26567096 0.15383798 -0.00016289845
-0.16577132 -0.17339742 -0.04414305 -0.112084314 0.052440755 0.09261487 -0.03591744 0.022745294
-0.06195629 -0.015690733 -0.1675459 0.09272305 -0.0029757894 -0.07694816 0.10604306 -0.070341304
0.09838316 0.025135292 0.072308294 -0.003044155 0.110140845 0.10735895 -0.042599063 -0.052484035
0.06816857 0.04368837 0.10574784 0.13546875 0.010571827 -0.06390338 0.08795208 -0.1541918
0.01767603 0.089876175 -0.09984159 -0.12228972 -0.28935465 0.06911518 0.19187698 0.2201036
0.12051791 -0.03844889 -0.037761524 0.1840266 0.02594081 0.011775779 -0.17170529 0.08075016
-0.027704637 0.0065446463 0.2449636 0.035134077 -0.068038955 -0.30977827 -0.06872308 0.06153884
0.03732429 -0.024032457 -0.11708927 -0.00515373 0.02322886 0.07528909 -0.016013749 0.022442685
0.03005791 0.02577953 0.09820527 -0.08701183 0.035302736 -0.049207307 -0.15925124 -0.0013760658
0.038102865 -0.02860887 0.13559067 -0.08724812 -0.23663144 0.09732323 -0.056197323 0.092717476
0.0067512374 0.04775715 -0.1949911 0.033012588 -0.05500709 -0.1640317 -0.078275025 0.06373155
-0.08377466 -0.0117897615 -0.11717018 -0.14930119 0.00042649932 -0.2943044 0.10042639 0.06298426
-0.020550469 -0.0045548845 0.015127998 0.059785575 0.1292149 -0.06043204 0.05760881 0.22646157
-0.04783667 0.16609588 0.12807745 -0.10922527 -0.14120622 0.07741561 0.06562264 -0.12699433
0.09788349 0.06139592 -0.054763798 -0.1779222 -0.09225993 -0.07230271 -0.09000528 0.22411284
0.18575607 -0.07163493 -0.047162764 0.10661077 0.10435152 0.05035676 -0.03741541 -0.053102087

fc3.bias f4 [10]
00000000: 90e9 b2bd e72c d13d c312 93bd b2d3 913b
00000010: 3944 ef3d a494 89bd 7e7f 6bbd f1db 5f3d
00000020: c3bc d0bd d247 d6bd
-0.08735955 0.102136426 -0.07181313 0.004450285 0.11682934 -0.06717804 -0.057494633 0.05465311
-0.101922534 -0.104629174
